{"config": [{"config": {"batch_input_shape": [null, 5, 4, 13], "activation": "relu", "dilation_rate": [1, 1], "strides": [1, 1], "padding": "same", "dtype": "float32", "data_format": "channels_first", "bias_regularizer": null, "kernel_size": [5, 5], "use_bias": true, "kernel_regularizer": null, "activity_regularizer": null, "filters": 20, "kernel_constraint": null, "kernel_initializer": {"config": {"mode": "fan_avg", "scale": 1.0, "distribution": "uniform", "seed": null}, "class_name": "VarianceScaling"}, "name": "conv2d_1", "bias_constraint": null, "bias_initializer": {"config": {}, "class_name": "Zeros"}, "trainable": true}, "class_name": "Conv2D"}, {"config": {"strides": [2, 2], "padding": "valid", "data_format": "channels_first", "name": "max_pooling2d_1", "pool_size": [2, 2], "trainable": true}, "class_name": "MaxPooling2D"}, {"config": {"batch_input_shape": [null, 20, 12, 12], "activation": "relu", "dilation_rate": [1, 1], "strides": [1, 1], "padding": "same", "dtype": "float32", "data_format": "channels_first", "bias_regularizer": null, "kernel_size": [5, 5], "use_bias": true, "kernel_regularizer": null, "activity_regularizer": null, "filters": 20, "kernel_constraint": null, "kernel_initializer": {"config": {"mode": "fan_avg", "scale": 1.0, "distribution": "uniform", "seed": null}, "class_name": "VarianceScaling"}, "name": "conv2d_2", "bias_constraint": null, "bias_initializer": {"config": {}, "class_name": "Zeros"}, "trainable": true}, "class_name": "Conv2D"}, {"config": {"strides": [2, 2], "padding": "valid", "data_format": "channels_first", "name": "max_pooling2d_2", "pool_size": [2, 2], "trainable": true}, "class_name": "MaxPooling2D"}, {"config": {"name": "dropout_1", "rate": 0.2, "trainable": true}, "class_name": "Dropout"}, {"config": {"name": "flatten_1", "trainable": true}, "class_name": "Flatten"}, {"config": {"bias_regularizer": null, "activation": "sigmoid", "use_bias": true, "kernel_regularizer": null, "activity_regularizer": null, "kernel_constraint": null, "kernel_initializer": {"config": {"mode": "fan_avg", "scale": 1.0, "distribution": "uniform", "seed": null}, "class_name": "VarianceScaling"}, "units": 100, "name": "dense_1", "bias_constraint": null, "bias_initializer": {"config": {}, "class_name": "Zeros"}, "trainable": true}, "class_name": "Dense"}, {"config": {"bias_regularizer": null, "activation": "linear", "use_bias": true, "kernel_regularizer": null, "activity_regularizer": null, "kernel_constraint": null, "kernel_initializer": {"config": {"mode": "fan_avg", "scale": 1.0, "distribution": "uniform", "seed": null}, "class_name": "VarianceScaling"}, "units": 1, "name": "dense_2", "bias_constraint": null, "bias_initializer": {"config": {}, "class_name": "Zeros"}, "trainable": true}, "class_name": "Dense"}], "class_name": "Sequential", "backend": "tensorflow", "keras_version": "2.0.8"}