{"config": [{"config": {"use_bias": true, "name": "conv2d_1", "kernel_regularizer": null, "filters": 20, "kernel_initializer": {"config": {"distribution": "uniform", "mode": "fan_avg", "scale": 1.0, "seed": null}, "class_name": "VarianceScaling"}, "strides": [1, 1], "activity_regularizer": null, "kernel_size": [5, 5], "dilation_rate": [1, 1], "data_format": "channels_first", "activation": "relu", "padding": "same", "dtype": "float32", "bias_constraint": null, "trainable": true, "batch_input_shape": [null, 5, 4, 13], "bias_initializer": {"config": {}, "class_name": "Zeros"}, "bias_regularizer": null, "kernel_constraint": null}, "class_name": "Conv2D"}, {"config": {"data_format": "channels_first", "name": "max_pooling2d_1", "trainable": true, "strides": [2, 2], "pool_size": [2, 2], "padding": "valid"}, "class_name": "MaxPooling2D"}, {"config": {"use_bias": true, "name": "conv2d_2", "kernel_regularizer": null, "filters": 20, "kernel_initializer": {"config": {"distribution": "uniform", "mode": "fan_avg", "scale": 1.0, "seed": null}, "class_name": "VarianceScaling"}, "strides": [1, 1], "activity_regularizer": null, "kernel_size": [5, 5], "dilation_rate": [1, 1], "data_format": "channels_first", "activation": "relu", "padding": "same", "dtype": "float32", "bias_constraint": null, "trainable": true, "batch_input_shape": [null, 20, 12, 12], "bias_initializer": {"config": {}, "class_name": "Zeros"}, "bias_regularizer": null, "kernel_constraint": null}, "class_name": "Conv2D"}, {"config": {"data_format": "channels_first", "name": "max_pooling2d_2", "trainable": true, "strides": [2, 2], "pool_size": [2, 2], "padding": "valid"}, "class_name": "MaxPooling2D"}, {"config": {"trainable": true, "name": "dropout_1", "rate": 0.2}, "class_name": "Dropout"}, {"config": {"trainable": true, "name": "flatten_1"}, "class_name": "Flatten"}, {"config": {"use_bias": true, "name": "dense_1", "kernel_regularizer": null, "kernel_initializer": {"config": {"distribution": "uniform", "mode": "fan_avg", "scale": 1.0, "seed": null}, "class_name": "VarianceScaling"}, "units": 100, "activity_regularizer": null, "activation": "sigmoid", "kernel_constraint": null, "bias_constraint": null, "trainable": true, "bias_initializer": {"config": {}, "class_name": "Zeros"}, "bias_regularizer": null}, "class_name": "Dense"}, {"config": {"use_bias": true, "name": "dense_2", "kernel_regularizer": null, "kernel_initializer": {"config": {"distribution": "uniform", "mode": "fan_avg", "scale": 1.0, "seed": null}, "class_name": "VarianceScaling"}, "units": 1, "activity_regularizer": null, "activation": "linear", "kernel_constraint": null, "bias_constraint": null, "trainable": true, "bias_initializer": {"config": {}, "class_name": "Zeros"}, "bias_regularizer": null}, "class_name": "Dense"}], "backend": "tensorflow", "keras_version": "2.0.8", "class_name": "Sequential"}