{"keras_version": "2.0.8", "config": [{"config": {"bias_regularizer": null, "strides": [1, 1], "activation": "relu", "kernel_regularizer": null, "activity_regularizer": null, "batch_input_shape": [null, 5, 4, 13], "filters": 20, "dilation_rate": [1, 1], "data_format": "channels_first", "dtype": "float32", "padding": "same", "use_bias": true, "kernel_size": [5, 5], "bias_initializer": {"config": {}, "class_name": "Zeros"}, "name": "conv2d_1", "kernel_initializer": {"config": {"distribution": "uniform", "mode": "fan_avg", "seed": null, "scale": 1.0}, "class_name": "VarianceScaling"}, "kernel_constraint": null, "trainable": true, "bias_constraint": null}, "class_name": "Conv2D"}, {"config": {"data_format": "channels_first", "padding": "valid", "strides": [2, 2], "pool_size": [2, 2], "name": "max_pooling2d_1", "trainable": true}, "class_name": "MaxPooling2D"}, {"config": {"bias_regularizer": null, "strides": [1, 1], "activation": "relu", "kernel_regularizer": null, "activity_regularizer": null, "batch_input_shape": [null, 20, 12, 12], "filters": 20, "dilation_rate": [1, 1], "data_format": "channels_first", "dtype": "float32", "padding": "same", "use_bias": true, "kernel_size": [5, 5], "bias_initializer": {"config": {}, "class_name": "Zeros"}, "name": "conv2d_2", "kernel_initializer": {"config": {"distribution": "uniform", "mode": "fan_avg", "seed": null, "scale": 1.0}, "class_name": "VarianceScaling"}, "kernel_constraint": null, "trainable": true, "bias_constraint": null}, "class_name": "Conv2D"}, {"config": {"data_format": "channels_first", "padding": "valid", "strides": [2, 2], "pool_size": [2, 2], "name": "max_pooling2d_2", "trainable": true}, "class_name": "MaxPooling2D"}, {"config": {"name": "dropout_1", "trainable": true, "rate": 0.2}, "class_name": "Dropout"}, {"config": {"trainable": true, "name": "flatten_1"}, "class_name": "Flatten"}, {"config": {"bias_regularizer": null, "units": 100, "activation": "sigmoid", "activity_regularizer": null, "kernel_regularizer": null, "kernel_constraint": null, "bias_constraint": null, "bias_initializer": {"config": {}, "class_name": "Zeros"}, "name": "dense_1", "kernel_initializer": {"config": {"distribution": "uniform", "mode": "fan_avg", "seed": null, "scale": 1.0}, "class_name": "VarianceScaling"}, "use_bias": true, "trainable": true}, "class_name": "Dense"}, {"config": {"bias_regularizer": null, "units": 1, "activation": "linear", "activity_regularizer": null, "kernel_regularizer": null, "kernel_constraint": null, "bias_constraint": null, "bias_initializer": {"config": {}, "class_name": "Zeros"}, "name": "dense_2", "kernel_initializer": {"config": {"distribution": "uniform", "mode": "fan_avg", "seed": null, "scale": 1.0}, "class_name": "VarianceScaling"}, "use_bias": true, "trainable": true}, "class_name": "Dense"}], "backend": "tensorflow", "class_name": "Sequential"}